best_model.pth (torch, 615908 bytes, 8 tensors)

conv1.weight f4 [16, 3, 3, 3]
-0.17748177 -0.08583346 -0.14315808 -0.15316993 -0.08369552 0.035606854 -0.051812798 -0.05945023
0.13756905 0.13119173 -0.03907703 -0.2229687 -0.0052088555 -0.1326566 -0.07306841 -0.22635151
0.14822297 -0.106552966 -0.103227645 -0.18827482 -0.24020721 -0.25564787 -0.102940574 -0.065872125
-0.2090659 -0.12686482 -0.13631198 0.013431384 0.052823666 0.14167637 -0.13945624 0.03513769
-0.09151109 0.1419017 0.038182173 -0.019785877 -0.06260415 0.21910559 0.07000676 0.08327971
0.18944806 -0.11710323 0.19893642 0.19117561 0.19113785 -0.1071921 -0.27594438 -0.076849595
-0.078339234 -0.19205673 -0.30764195 0.053258423 -0.23297498 -0.1633793 -0.03547324 0.21373397
0.24639198 -0.10053213 0.1954522 0.084211014 0.116105065 0.123962395 0.27264896 -0.15266125
-0.13549629 -0.101124056 -0.073738284 -0.07969337 -0.18689322 -0.2173808 -0.1844214 -0.19059563
-0.14672779 -0.109460495 -0.026724726 0.09588273 -0.098354235 0.020223802 -0.07588024 -0.08588825
-0.03500196 -0.28935084 -0.2777178 0.04867099 -0.07455274 -0.27032372 -0.05333833 -0.26950613
0.06011651 -0.13288063 0.13472919 0.14825283 -0.0011981179 0.14831026 -0.06339653 0.17704372
0.11844877 0.056589514 -0.024434341 -0.0062223533 0.14573899 0.14148182 -0.09895435 -0.1306755
0.21311355 0.16630253 0.019238077 -0.12042822 0.19107178 0.025483608 -0.05133956 0.1476922
0.044922154 0.033530112 -0.16707684 0.09541861 0.15175645 -0.1457089 -0.055237673 -0.11930989
0.07195983 -0.11431982 -0.031402737 -0.15255713 0.13432275 -0.020920444 -0.17296915 -0.090101585
0.021399554 -0.1417398 -0.049553428 -0.2160678 0.08488912 -0.06396029 -0.23522809 0.104858495
-0.21643993 0.017082175 0.090673104 -0.0020917687 0.09458162 0.106987804 0.093007565 0.046806794
0.061432 0.031151047 0.014319277 0.046334226 -0.1858087 -0.13071626 -0.11788783 0.055697102
0.062480107 0.06534884 -0.08811092 0.14907463 -0.0692063 -0.012903025 -0.020213176 -0.09192925
0.04695551 -0.2048973 0.02519719 0.014776312 0.055136822 -0.009176329 0.017539583 0.21112803
0.06446877 -0.037129037 -0.018360723 0.10041814 -0.13281119 -0.13204657 -0.15865476 0.027549302
0.07581645 -0.10517966 0.026379963 -0.2253312 -0.13947336 -0.0885047 -0.22345749 -0.25504103
-0.053330015 -0.005302821 -0.14573364 -0.052495904 -0.19133347 0.26872587 0.11568405 0.2363266
0.018742332 -0.02108094 -0.01855479 0.046688758 0.056603923 0.24057126 -0.14423299 -0.2244625
-0.19499338 -0.23819047 -0.059357207 -0.2003903 0.107518844 0.035893917 -0.07239834 0.094233975
0.14666739 0.14173856 -0.14397867 -0.08271194 -0.08802895 0.13267273 -0.01634022 -0.116697274
0.119887866 0.085389234 0.009893996 -0.09019553 -0.11473944 -0.11274176 -0.103018284 0.056554344
-0.22056147 -0.15701292 -0.06085438 0.08285405 0.15735215 -0.10777578 -0.15096271 0.14881767
-0.0575772 0.035354406 0.12451426 -0.19457293 0.011170758 0.018208874 0.14232397 0.0016042411
0.14216127 -0.08565601 -0.19849235 -0.08461331 -0.159704 0.04918511 -0.24315418 -0.01121478
-0.25316656 -0.07173556 0.06318015 -0.10485927 0.099260196 0.21264876 -0.013551157 -0.15532394
00000000: c8bd 35be 74c9 afbd 0898 12be 94d8 1cbe
00000010: 8f68 abbd 7ed8 113d a839 54bd 1682 73bd
00000020: e7de 0c3e 2057 063e 3c0f 20bd e851 64be
00000030: 0caf aabb 22d7 07be e4a4 95bd b1c8 67be
00000040: c3c7 173e 7138 dabd 0469 d3bd 1dcb 40be
00000050: e1f8 75be 47e4 82be 82d2 d2bd f7e7 86bd
00000060: 5f15 56be dae8 01be 5e95 0bbe 4f0f 5c3c
00000070: a15d 583d 9c13 113e 9ecd 0ebe 8aec 0f3d
00000080: 2b6a bbbd ae4e 113e e964 1c3d fe15 a2bc
00000090: 9b36 80bd 375d 603e b45f 8f3d 8d8e aa3d
000000a0: acfe 413e d1d3 efbd fdb5 4b3e 8ac3 433e
000000b0: a4b9 433e 8887 dbbd 9548 8dbe 5263 9dbd
000000c0: 5270 a0bd 85aa 44be 3f83 9dbe 8125 5a3d
000000d0: fe90 6ebe e74c 27be 634c 11bd 14dd 5a3e
000000e0: 2e4e 7c3e cae3 cdbd 9f24 483e d376 ac3d
000000f0: 7ec8 ed3d ffdf fd3d a598 8b3e 3b53 1cbe
00000100: 8abf 0abe 211a cfbd 1904 97bd 4736 a3bd
00000110: f060 3fbe 1399 5ebe f7d8 3cbe 802b 43be
00000120: cf3f 16be d32c e0bd d0ed dabc 2a5e c43d
00000130: f26d c9bd 63ac a53c 1967 9bbd 2ee6 afbd
00000140: 375e 0fbd cb25 94be 0731 8ebe 3b5b 473d
00000150: 1baf 98bd df67 8abe 4b79 5abd b5fc 89be
00000160: bb3c 763d dc11 08be 73f6 093e 97cf 173e
00000170: 2a0a 9dba a5de 173e 0ad6 81bd f34a 353e
00000180: 4595 f23d 68ca 673d 872a c8bc e2e4 cbbb
00000190: 9a3c 153e 9ce0 103e 94a8 cabd cccf 05be
000001a0: 703a 5a3e 364b 2a3e 2c99 9d3c 12a3 f6bd
000001b0: 52a8 433e 00c3 d03c 6e49 52bd a03c 173e
000001c0: 4b00 383d df56 093d 3116 2bbe d56a c33d
000001d0: 0b66 1b3e b734 15be e640 62bd be58 f4bd
000001e0: ad5f 933d 8320 eabd 28a0 00bd f037 1cbe
000001f0: e78b 093e 5a61 abbc d31e 31be 2e87 b8bd
00000200: 1e4e af3c 3d24 11be 89f8 4abd e140 5dbe
00000210: 59da ad3d 9dfd 82bd a2df 70be 0dc0 d63d
00000220: 6ea2 5dbe ebef 8b3c d2b2 b93d 0e16 09bb
00000230: 02b4 c13d 6c1c db3d c07a be3d 7bb8 3f3d
00000240: 1fa0 7b3d 7b30 ff3c 679b 6a3c f5c8 3d3d
00000250: a344 3ebe 7cda 05be 2d6f f1bd a522 643d
00000260: 24eb 7f3d 9dd5 853d 7f73 b4bd 05a7 183e
00000270: 08bc 8dbd 3667 53bc 1a96 a5bc 6745 bcbd
00000280: 6c54 403d 99d0 51be 566a ce3c 5818 723c
00000290: 26d7 613d 5058 16bc 2caf 8f3c f231 583e
000002a0: 3408 843d 9e14 18bd 3a69 96bc 07a8 cd3d
000002b0: a8ff 07be 3737 07be 6576 22be 13af e13c
000002c0: a845 9b3d 6f68 d7bd cb1a d83c 39bd 66be
000002d0: 1bd2 0ebe f441 b5bd 0ad2 64be bd94 82be
000002e0: 9370 5abd 49c3 adbb 333b 15be f205 57bd
000002f0: ecec 43be 7096 893e c2eb ec3d 9aff 713e
00000300: 8589 993c efb1 acbc 3700 98bc b63c 3f3d
00000310: 84d9 673d 5058 763e d0b1 13be 7fd9 65be
00000320: 58ac 47be 34e8 73be 8b20 73bd 1d33 4dbe
00000330: d732 dc3d 8005 133d 9545 94bd befd c03d
00000340: fa2f 163e ea23 113e 256f 13be e164 a9bd
00000350: 8648 b4bd 5cdb 073e eddb 85bc fbfe eebd
00000360: c587 f53d 8de0 ae3d 6d1a 223c 6fb8 b8bd
00000370: 83fc eabd 27e5 e6bd 40fb d2bd 87a5 673d
00000380: deda 61be ffc7 20be 7142 79bd 62af a93d
00000390: ec20 213e 8cb9 dcbd f895 1abe a963 183e
000003a0: 12d6 6bbd c8cf 103d 5501 ff3d 203e 47be
000003b0: 8e05 373c c72a 953c 60bd 113e 6645 d23a
000003c0: b992 113e 6b6c afbd 9441 4bbe be49 adbd
000003d0: 7289 23be 5376 493d 69fd 78be 32be 37bc
000003e0: 0c9f 81be 18ea 92bd 9864 813d 75c0 d6bd
000003f0: ee48 cb3d 99c0 593e ac05 5ebc 3d0d 1fbe

conv1.bias f4 [16]
-0.12285103 -0.01782732 -0.13906166 0.057748977 0.12893656 -0.23088786 -0.15265381 -0.0004057481
0.029606787 0.10195514 -0.09322148 0.14616302 -0.16635188 -0.010724983 0.069016986 -0.078682855
00000000: 5299 fbbd 9a0a 92bc 2e66 0ebe 318a 6c3d
00000010: f207 043e de6d 6cbe 4851 1cbe 97ba d4b9
00000020: ef89 f23c dbcd d03d e7ea bebd c2ab 153e
00000030: 2658 2abe d7b7 2fbc c758 8d3d 7a24 a1bd

conv2.weight f4 [32, 16, 3, 3]
-0.032424334 -0.07334184 -0.056583095 0.047255885 0.043677654 -0.049866773 -0.00982853 -0.01875335
-0.06336472 -0.11684264 -0.09126148 0.0057178726 -0.09348032 -0.12751357 -0.066156 -0.09912423
-0.013633248 -0.04770946 -0.0039004567 -0.098466456 0.019461382 -0.0024547372 -0.08294697 -0.055015303
-0.075086586 -0.03322306 0.020841295 0.045163766 0.028426822 -0.07959596 -0.079297334 -0.0008746762
-0.09775369 -0.0013378097 -0.07525036 -0.092455715 -0.11360834 -0.11665531 -0.007867035 0.003365478
-0.0071761026 -0.042976264 0.0002950306 -0.08963951 -0.027601274 -0.0028566686 0.020263905 -0.034708958
-0.03452601 -0.040287334 0.026386544 0.056379832 -0.027867408 0.010707851 0.019554788 -0.017462121
-0.042611193 0.039925534 -0.08848643 -0.0108922105 -0.070182316 -0.010354786 0.005560998 -0.005032829
-0.021487739 0.05890923 0.06401006 -0.054539382 -0.07493053 0.062394414 0.06270117 -0.06278277
-0.023143731 -0.04180606 -0.07895603 -0.05356703 -0.044701554 0.013829751 0.04596067 0.0288382
-0.036551103 -0.09364736 0.026862469 0.024180984 -0.010172242 -0.08917078 0.04314666 -0.037825312
-0.074680194 0.06009275 -0.005513187 0.080716155 0.16316313 0.073999144 0.074676014 0.021275388
-0.009829037 0.14397523 0.081475735 0.0020387417 -0.023185968 0.047953982 0.04457615 0.0056523895
0.067554176 0.025652912 0.07974369 0.0048925444 0.0062490897 -0.041037936 -0.05387201 -0.09318628
0.026517982 -0.0067587406 -0.062163156 -0.0021122922 -0.08672935 -0.012832694 -0.0719382 0.037190598
-0.07460602 0.033316724 -0.08642473 -0.06259898 0.05685763 -0.06843451 -0.029770356 -0.00025316587
-0.09817611 -0.09212769 -0.03847844 -0.10637004 0.016030002 0.0045954706 -0.07654756 0.026768306
0.04799106 -0.03873715 0.0715593 0.003973588 -0.08462469 -0.008226499 -0.084084556 -0.05959687
-0.040190194 0.037157062 0.039879866 -0.01713655 -0.0033939627 0.044968754 0.027765982 -0.043386593
0.068059556 0.08748987 0.08760365 0.023116075 0.0011764278 0.06844537 -0.021138053 -0.069212906
-0.06845444 -0.093254134 0.028683137 0.043203484 0.08857407 -0.018271906 -0.009361617 -0.032071885
-0.108179495 -0.027614584 -0.08534622 -0.00073067716 0.015022905 0.0032362554 0.030941945 -0.09092398
-0.00458935 0.012824111 -0.010966383 -0.07130799 -0.011643134 -0.10302035 0.05001278 -0.11156303
0.01337436 0.009249738 -0.0922385 -0.122896336 0.032050777 0.028552549 0.048308562 -0.07147937
-0.07404027 -0.0151730515 -0.059249997 0.052411634 0.05959211 -0.033306386 -0.01183164 0.005877744
-0.024848182 -0.058909968 0.051279437 -0.0720831 -0.07364411 -0.030564815 -0.04639483 0.010070254
0.0021878288 0.046780445 -0.033132236 -0.0931341 -0.049278732 -0.11690632 -0.09070675 -0.11108706
-0.006641767 0.07290341 -0.04762221 -0.09011635 0.07231968 -0.07993751 -0.011566479 0.0010628286
0.053550113 0.020000704 0.007865059 -0.07672248 -0.014484905 0.0635889 0.034607098 -0.002750769
-0.017885013 -0.0817329 0.040692504 -0.029103743 -0.08293195 -0.027562307 -0.027595477 -0.06231074
0.06265144 0.06403179 0.078095384 -0.072211616 -0.07203636 -0.016317666 -0.02745884 0.027452338
-0.013432091 -0.00067018514 0.05828938 0.03329736 -0.11740021 0.041411143 -0.013310767 -0.083234996
00000000: 61cf 04bd 3f34 96bd adc3 67bd 638f 413d
00000010: 57e7 323d 1a41 4cbd d807 21bc a0a0 99bc
00000020: 5dc5 81bd 324b efbd 4ce7 babd fe5c bb3b
00000030: 9c72 bfbd eb92 02be cc7c 87bd a501 cbbd
00000040: fd5d 5fbc ff6a 43bd ce9e 7fbb c8a8 c9bd
00000050: 7a6d 9f3c a8df 20bb 1ae0 a9bd ba57 61bd
00000060: ffc6 99bd e714 08bd 5dbb aa3c a4fd 383d
00000070: 5edf e83c 3503 a3bd a466 a2bd 874a 65ba
00000080: 1633 c8bd 7259 afba dc1c 9abd 6c59 bdbd
00000090: 7dab e8bd fbe8 eebd bde4 00bc 5a8f 5c3b
000000a0: 8325 ebbb e107 30bd 56ae 9a39 eb94 b7bd
000000b0: 111c e2bc f236 3bbb 7d00 a63c fb2a 0ebd
000000c0: 256b 0dbd 5504 25bd 9828 d83c 8aee 663d
000000d0: 314a e4bc fb6f 2f3c 5d31 a03c b90c 8fbc
000000e0: 1389 2ebd f588 233d 6038 b5bd 3e75 32bc
000000f0: bfbb 8fbd 1fa7 29bc 0839 b63b 6eea a4bb
00000100: 0e07 b0bc ce4a 713d b517 833d b064 5fbd
00000110: 2d75 99bd 4991 7f3d 7969 803d 4194 80bd
00000120: ec97 bdbc d53c 2bbd b3b3 a1bd 1a69 5bbd
00000130: fa18 37bd 2e96 623c 4141 3c3d 173e ec3c
00000140: 9cb6 15bd 30ca bfbd ae0e dc3c 3317 c63c
00000150: 7aa9 26bc 2b9f b6bd 8dba 303d b7ee 1abd
00000160: eef1 98bd d123 763d f7a7 b4bb 834e a53d
00000170: 3c14 273e dd8c 973d bdef 983d b949 ae3c
00000180: f809 21bc 3e6e 133e c0dc a63d 699c 053b
00000190: 80f0 bdbc 656b 443d 7b95 363d ae37 b93b
000001a0: d859 8a3d 0e26 d23c a950 a33d a351 a03b
000001b0: 2ac5 cc3b 6517 28bd e6a8 5cbd 73d8 bebd
000001c0: 3d3c d93c 6d78 ddbb cb9e 7ebd 626e 0abb
000001d0: 289f b1bd 3840 52bc 5654 93bd 2b55 183d
000001e0: 0acb 98bd 1e77 083d 73ff b0bd e533 80bd
000001f0: 8ce3 683d 6427 8cbd f6e0 f3bc 59bb 84b9
00000200: 8e10 c9bd 71ad bcbd 929b 1dbd 89d8 d9bd
00000210: 5a51 833c 9a95 963b f8c4 9cbd 3549 db3c
00000220: 4692 443d d9aa 1ebd af8d 923d df34 823b
00000230: b64f adbd 70c8 06bc 8634 acbd d91b 74bd
00000240: 799e 24bd 0132 183d 1259 233d f361 8cbc
00000250: 3f6d 5ebb 2831 383d 7c75 e33c 24b6 31bd
00000260: cf62 8b3d e42d b33d 8b69 b33d ec5d bd3c
00000270: 5e32 9a3a 162d 8c3d b629 adbc 7fbf 8dbd
00000280: d731 8cbd 06fc bebd e6f8 ea3c 23f6 303d
00000290: 5266 b53d f7ae 95bc 7861 19bc cf5d 03bd
000002a0: 368d ddbd fb37 e2bc 00ca aebd ea8a 3fba
000002b0: a122 763c 5b17 543b f679 fd3c 5a36 babd
000002c0: 4262 96bb 381c 523c 58ac 33bc ec09 92bd
000002d0: d8c2 3ebc 55fc d2bd 33da 4c3d 287b e4bd
000002e0: 2220 5b3c 378c 173c 8ae7 bcbd 13b1 fbbd
000002f0: ad47 033d 09e7 e93c 33df 453d c763 92bd
00000300: 6da2 97bd 6498 78bc 20b0 72bd 95ad 563d
00000310: db16 743d 476c 08bd 7fd9 41bc 179a c03b
00000320: 6a8e cbbc 944b 71bd 630a 523d 4ea0 93bd
00000330: b9d2 96bd 1063 fabc 8108 3ebd b5fd 243c
00000340: ad61 0f3b da9c 3f3d abb5 07bd 17bd bebd
00000350: 7fd8 49bd 956c efbd 76c4 b9bd 9d81 e3bd
00000360: 2ea3 d9bb 624e 953d 820f 43bd ec8e b8bd
00000370: 571c 943d 47b6 a3bd 5481 3dbc 9c4e 8b3a
00000380: 5d57 5b3d 84d8 a33c 73dc 003c ad20 9dbd
00000390: 1852 6dbc e63a 823d 2cc0 0d3d 3f46 34bb
000003a0: 9783 92bc 9463 a7bd 2fad 263d f96a eebc
000003b0: 3ad8 a9bd 59ca e1bc e90f e2bc 8c39 7fbd
000003c0: 664f 803d 1923 833d 79f0 9f3d afe3 93bd
000003d0: cd87 93bd a0ac 85bc 5cf1 e0bc bae3 e03c
000003e0: 4612 5cbc 5daf 2fba d8c0 6e3d d062 083d
000003f0: 856f f0bd bb9e 293d 6715 5abc 1c77 aabd

conv2.bias f4 [32]
0.06664657 -0.013681476 0.0704401 0.0693126 -0.010369782 0.111794904 0.07981764 -0.030271104
-0.006639795 -0.066732265 0.09346255 -0.08111248 0.071554914 0.034765363 0.10778215 -0.015808633
-0.033893477 0.10870909 -0.103350975 0.11481557 0.0067625777 0.03702235 -0.016710803 -0.05121692
-0.019652158 -0.009983857 0.10531937 -0.043396678 0.12944362 -0.072523296 0.13509975 0.066288665
00000000: ff7d 883d 4528 60bc e642 903d c4f3 8d3d
00000010: 05e6 29bc baf4 e43d 6e77 a33d 1bfb f7bc
00000020: a392 d9bb edaa 88bd 4b69 bf3d 4d1e a6bd
00000030: 628b 923d 2066 0e3d e3bc dc3d 1b81 81bc
00000040: e3d3 0abd dfa2 de3d ada9 d3bd 6d24 eb3d
00000050: 9d98 dd3b bfa4 173d 18e5 88bc d5c8 51bd
00000060: 90fd a0bc 5593 23bc afb1 d73d b7c0 31bd
00000070: de8c 043e 1887 94bd 9757 0a3e 5ac2 873d

fc1.weight f4 [128, 1152]
-0.024972444 -0.020198759 -0.020149969 -0.0015685594 -0.016371852 -0.01325648 -0.004440028 0.02190553
0.01239212 -0.0024445984 -0.02125252 -0.012656819 -0.031469963 -0.023980455 -0.019995766 -0.02932209
-0.015551966 -0.029457407 -0.008761136 0.0032484834 -0.0020374516 0.004731819 -0.021674745 -0.011391415
0.010822785 -0.020229053 -0.029959897 0.0038056849 -0.015287739 0.015203445 -0.009506692 -0.031397123
-0.015266109 0.018552387 -0.029148284 -0.022682577 -0.001403221 -0.05338116 -0.021450115 -0.0057554357
-0.009399433 -0.02876075 -0.047098782 0.002653342 -0.0031137345 -0.053769834 -0.02486146 -0.025436176
-0.05493993 -0.030085927 -0.0031900252 -0.04891381 -0.027316548 -0.014933654 -0.047222536 -0.020906024
0.0030484444 -0.006855567 -0.035420306 -0.0040545766 -0.02865805 -0.036827058 -0.0042403047 0.008144303
-0.029649958 -0.00020710895 -0.008681647 -0.012665168 -0.0108715445 0.0052319467 -0.00654869 -0.002345864
-0.006347729 -0.005473028 -0.0337725 -0.029490218 -0.027024886 0.016124297 0.0038501846 0.01343235
-0.032638863 0.006906601 -0.0050612073 0.018356606 0.0072402423 -0.03340654 -0.026879178 -0.0028438678
-0.0011638692 -0.020287927 -0.026905635 0.01065516 -0.00800748 0.0047759064 -0.012595998 -0.016753417
-0.008181229 -0.0180017 0.017154912 0.008869987 -0.032883674 -0.006922135 -0.013678173 0.0067778807
-0.014195586 0.017603498 0.0022188919 -0.037169218 0.0062646717 -0.037664037 0.007726589 0.0038275137
0.0016652961 -0.004684293 0.01799998 0.0029231526 -0.028036594 -0.026618557 -0.004275615 -0.029629618
-0.023882633 0.0022530986 -0.006566622 0.004640022 -0.017393444 0.0175291 0.016890056 0.002259975
-0.037359796 0.010636705 -0.018570432 -0.019364316 -0.03790009 -0.028560417 -0.038293842 -0.035501517
-0.032516833 0.0031516254 -0.013621702 -0.024734333 -0.016095484 -0.026103524 0.01979049 0.01656242
-0.0062965746 -0.010656536 0.00707632 -0.031400446 0.021680921 0.014483845 0.008925555 -0.013067712
-0.0010907069 0.01706337 -0.03120527 -0.017017953 0.00415748 -0.0090958 -0.004416516 0.016590375
-0.03223364 -0.032042608 0.010238946 0.020340938 -0.0006788084 0.012395449 -0.019170728 -0.012963052
-0.034592226 -0.0011117818 -0.018730871 -0.036515865 0.0016823148 0.008831612 -0.022518069 0.0077223848
-0.03096913 -0.00774276 -0.004580021 0.0150171155 -0.028907957 -0.018396435 0.006996795 0.009704454
0.010981313 0.015726484 -0.013088781 -0.00091347465 0.0075234133 0.013369521 0.008143591 0.0056634396
0.00010008162 0.016930405 -0.028788913 0.008331322 -0.02405311 -0.022401433 0.011881011 0.022807661
0.01804607 -0.028154874 0.016091367 -0.01090705 -0.030745205 -0.015716927 -0.0027234415 -0.0033399248
-0.0016374076 -0.03579955 -0.01411294 -0.017197555 0.015583828 -0.0039075995 -0.007481502 -0.01672056
-0.010987153 0.016668981 -0.012483933 -0.030921841 0.008269951 -0.0011089484 -0.037312556 0.011692976
0.012715734 0.023048317 0.032633387 -0.01424846 -0.028743945 -0.012370437 -0.03002763 -0.01179015
-0.016178627 -0.030060437 -0.005751833 -0.032235257 -0.019452035 -0.022188492 -0.022092767 -0.00954733
0.014433321 -0.030379286 0.0018124714 -0.0072012017 -0.038871698 -0.009400727 0.010830207 0.028567478
-0.030579103 -0.011734341 0.017326917 -0.007196826 -0.0030688012 0.0025744499 -0.023905994 0.0029986042
00000000: 0393 ccbc de77 a5bc 8c11 a5bc 1f98 cdba
00000010: 431e 86bc b531 59bc a87d 91bb 3a73 b33c
00000020: 5208 4b3c 8e35 20bb c419 aebc 8c5e 4fbc
00000030: a6e6 00bd a972 c4bc 29ce a3bc e134 f0bc
00000040: accd 7ebc a950 f1bc de8a 0fbc 82e4 543b
00000050: c486 05bb 600d 9b3b 3c8f b1bc 0fa3 3abc
00000060: 0d52 313c 66b7 a5bc 756e f5bc cc68 793b
00000070: 6d79 7abc df17 793c f5c1 1bbc 459a 00bd
00000080: b41e 7abc 2dfb 973c 62c8 eebc d0d0 b9bc
00000090: 49ec b7ba 34a6 5abd 27b8 afbc 1898 bcbb
000000a0: 1400 1abc aa9b ebbc a7ea 40bd b1e3 2d3b
000000b0: cc0f 4cbb c23d 5cbd 43aa cbbc 875f d0bc
000000c0: b108 61bd c376 f6bc be0f 51bb d959 48bd
000000d0: f4c6 dfbc 49ac 74bc 6b6c 41bd 1c43 abbc
000000e0: 69c8 473b aaa4 e0bb e214 11bd 41dc 84bb
000000f0: 49c4 eabc f8d7 16bd 41f2 8abb af6f 053c
00000100: 78e4 f2bc 632b 59b9 773d 0ebc 9181 4fbc
00000110: 901e 32bc c070 ab3b 6596 d6bb 11bd 19bb
00000120: 9c00 d0bb 1657 b3bb 0855 0abd 7895 f1bc
00000130: 4b63 ddbc 1a17 843c 6153 7c3b 5c13 5c3c
00000140: 54b0 05bd c550 e23b 7cd8 a5bb 9860 963c
00000150: 8e3f ed3b 4cd5 08bd b931 dcbc 2f60 3abb
00000160: f88c 98ba de32 a6bc 3569 dcbc fb92 2e3c
00000170: ce31 03bc 357f 9c3b 725f 4ebc 763e 89bc
00000180: 900a 06bc 4d78 93bc 7588 8c3c 6c53 113c
00000190: 08b1 06bd 14d3 e2bb 6a1a 60bc fc18 de3b
000001a0: 9a94 68bc 3635 903c d46a 113b c03e 18bd
000001b0: e047 cd3b 9b45 1abd 542f fd3b 06d7 7a3b
000001c0: 1146 da3a b37e 99bb b274 933c 5d92 3f3b
000001d0: 00ad e5bc 290f dabc 751a 8cbb d0b9 f2bc
000001e0: 83a5 c3bc b9a8 133b d12c d7bb 530b 983b
000001f0: b27c 8ebc 3099 8f3c 045d 8a3c 171c 143b
00000200: 9606 19bd 9345 2e3c 0521 98bc eaa1 9ebc
00000210: 203d 1bbd 89f7 e9bc 01da 1cbd 0a6a 11bd
00000220: 5f30 05bd 808b 4e3b 8f2d 5fbc a89f cabc
00000230: adda 83bc 0fd7 d5bc aa1f a23c eaad 873c
00000240: 7f53 cebb c098 2ebc 79e0 e73b c19d 00bd
00000250: 309c b13c a64d 6d3c 7e3c 123c f519 56bc
00000260: 0df6 8eba 7bc8 8b3c 32a2 ffbc 3c69 8bbc
00000270: 783b 883b 8d06 15bc 6cb8 90bb 8ae8 873c
00000280: 6c07 04bd 1c3f 03bd 41c1 273c 0aa2 a63c
00000290: 10f2 31ba 4816 4b3c ee0b 9dbc fb62 54bc
000002a0: 94b0 0dbd 35b9 91ba 7c71 99bc a991 15bd
000002b0: 1e81 dc3a 77b2 103c d077 b8bc 0f0c fd3b
000002c0: f9b2 fdbc fab6 fdbb 0014 96bb 590a 763c
000002d0: 61d0 ecbc 1fb4 96bc 5f45 e53b 6eff 1e3c
000002e0: f7ea 333c d4d4 803c 5472 56bc 3f76 6fba
000002f0: f786 f63b d60b 5b3c b26c 053c 6094 b93b
00000300: e9e2 d138 a2b1 8a3c bad6 ebbc 1980 083c
00000310: 070b c5bc 3683 b7bc 92a8 423c 22d7 ba3c
00000320: 5ad5 933c 0da5 e6bc 0bd2 833c 7cb3 32bc
00000330: 5edd fbbc c9c0 80bc c47b 32bb a4e2 5abb
00000340: 489e d6ba 8da2 12bd f639 67bc e3e1 8cbc
00000350: 5053 7f3c 520b 80bb 6327 f5bb 8ef9 88bc
00000360: 7603 34bc 638d 883c 6989 4cbc cd4f fdbc
00000370: b07e 073c 225a 91ba 0dd5 18bd e593 3f3c
00000380: a755 503c d3cf bc3c 96aa 053d 5f72 69bc
00000390: 6c78 ebbc 60ad 4abc 81fc f5bc 792b 41bc
000003a0: 0a89 84bc 4e41 f6bc df79 bcbb 1e09 04bd
000003b0: e059 9fbc a4c4 b5bc e4fb b4bc 686c 1cbc
000003c0: bc79 6c3c fbdd f8bc 7390 ed3a 0ff8 ebbb
000003d0: ee37 1fbd 8205 1abc 2e71 313c 5806 ea3c
000003e0: 0781 fabc 6541 40bc 2ef1 8d3c 5ad3 ebbb
000003f0: f11d 49bb 1ab8 283b 81d6 c3bc 3b84 443b

fc1.bias f4 [128]
0.082897514 0.07553888 -0.02983885 0.060632817 -0.035124637 -0.05244424 0.010136239 0.17206714
-0.034032322 0.097571366 -0.052364267 -0.022194175 0.0091659995 -0.021809 0.06574225 -0.027884126
-0.042689357 0.008737467 -0.049134675 -0.018259717 0.0085780835 -0.013133476 -0.012960541 0.0002921227
-0.034348447 -0.046017338 -0.04340857 0.16147988 -0.05445364 -0.033427887 -0.03543692 -0.0027747722
-0.053088725 -0.021228066 -0.039954394 -0.012637735 -0.09992762 -0.013958322 -0.026721014 -0.037587047
0.03819287 -0.021639224 -0.0021153418 -0.028522108 0.08564361 -0.046278283 -0.08269587 -0.0273192
-0.023234282 -0.05825818 -0.01629492 -0.03054627 0.18637924 -0.016218942 0.00572671 0.20127313
-0.047073886 -0.0227198 -0.013546025 -0.032015886 -0.03385873 -0.010537036 -0.028089963 -0.016651902
-0.04583729 0.004002455 -0.0026148409 0.12532665 -0.016990442 -0.015319313 -0.022512456 -0.033238385
-0.021449223 -0.030437706 -0.032967392 -0.023650117 -0.02464467 0.053760663 -0.06409351 0.015340416
-0.012013372 -0.04937188 -0.003978994 -0.024291309 -0.009485335 -0.002441929 0.20603524 -0.044714812
-0.018166553 -0.021990659 0.18684013 -0.05960456 -0.01235942 -0.028298466 0.026762445 -0.031453244
-0.013602795 -0.004393833 -0.0071016387 0.011920326 -0.024855323 -0.027728487 -0.0036956014 -0.0035516347
-0.036287893 0.07699301 -0.04388088 0.035278793 -0.011785233 -0.029110232 -0.0042323023 -0.006835725
-0.007594391 -0.05031726 0.0025165551 -0.03678002 -0.014083759 -0.05119772 -0.025890741 -0.034853507
0.13690042 -0.03386035 0.23827532 0.053639024 -0.0071463017 -0.025817301 0.099123925 -0.023696119
00000000: 2cc6 a93d 21b4 9a3d 9b70 f4bc 1e5a 783d
00000010: dade 0fbd c5cf 56bd 7812 263c 5e32 303e
00000020: 7a65 0bbd 7fd3 c73d ea7b 56bd 8fd0 b5bc
00000030: fd2c 163c caa8 b2bc dfa3 863d 406d e4bc
00000040: 09db 2ebd 9827 0f3c 7141 49bd 6795 95bc
00000050: 178b 0c3c ca2d 57bc 7358 54bc 0c28 9939
00000060: f5b0 0cbd ad7c 3cbd 2fcd 31bd fb5a 253e
00000070: c80a 5fbd aeeb 08bd 4e26 11bd f4d8 35bb
00000080: 9073 59bd 7be6 adbc 38a7 23bd 810e 4fbc
00000090: daa6 ccbd 72b1 64bc 07e6 dabc e0f4 19bd
000000a0: 2070 1c3d be44 b1bc 8ca1 0abb 32a7 e9bc
000000b0: eb65 af3d 4c8e 3dbd 745c a9bd 84cc dfbc
000000c0: d255 bebc 21a0 6ebd ed7c 85bc 2c3c fabc
000000d0: 33da 3e3e 96dd 84bc 20a7 bb3b 8b1a 4e3e
000000e0: 8cd0 40bd e01e babc 26f0 5dbc 1723 03bd
000000f0: 74af 0abd 88a3 2cbc ec1c e6bc 9269 88bc
00000100: e2bf 3bbd 0727 833b c05d 2bbb a155 003e
00000110: 8a2f 8bbc dbfd 7abc 0b6c b8bc f924 08bd
00000120: 48b6 afbc 7f58 f9bc d108 07bd e4bd c1bc
00000130: 9ee3 c9bc 2434 5c3d 7543 83bd 5e56 7b3c
00000140: bcd3 44bc 2b3a 4abd 3962 82bb 91fe c6bc
00000150: 6168 1bbc c508 20bb e7fa 523e e126 37bd
00000160: 06d2 94bc c125 b4bc 0553 3f3e e923 74bd
00000170: 2a7f 4abc 2fd2 e7bc ea3c db3c 1ed5 00bd
00000180: 42de 5ebc 25fa 8fbb ddb4 e8bb 794d 433c
00000190: 649d cbbc da26 e3bc e731 72bb 8bc2 68bb
000001a0: 9da2 14bd 83ae 9d3d 70bc 33bd 7f80 103d
000001b0: da16 41bc 9578 eebc 20af 8abb 38fe dfbb
000001c0: 5eda f8bb 7919 4ebd caec 243b a5a6 16bd
000001d0: 91bf 66bc b3b4 51bd d218 d4bc 8dc2 0ebd
000001e0: a02f 0c3e 26b1 0abd 72fe 733e 98b4 5b3d
000001f0: 862b eabb ce7e d3bc 7c01 cb3d 5d1e c2bc

fc2.weight f4 [4, 128]
0.06954527 0.074927 -0.026055139 0.053127278 -0.0052557727 0.092244975 0.009599701 -0.06688226
0.05970911 0.09421164 -0.003815662 -0.07676088 0.0819894 -0.012574491 0.026239185 -0.07611317
-0.056894053 0.09699969 -0.038445726 -0.01791584 0.07707596 -0.052486427 0.016083444 -0.051595576
-0.043270294 0.039875634 -0.012863854 0.036954805 0.076273896 0.017030807 0.011298357 -0.051179074
-0.12994686 -0.012734145 -0.31229782 0.057020072 -0.12648647 -0.06413472 0.04175638 -0.031895448
0.04799768 -0.010385492 -0.001791406 -0.050985783 0.09376955 -0.0360002 -0.14326438 -0.18663391
0.05654533 -0.066333294 -0.019662306 0.01389523 0.0001680036 -0.06570113 0.075562954 -0.07141181
0.03531856 -0.007441408 -0.017552938 -0.03134633 0.07268176 0.028335879 -0.055863 -0.06356873
-0.017817868 0.0831025 0.05204296 -0.014675394 -0.0002864943 0.027108403 -0.058971193 -0.052828453
0.03415494 -0.06094262 -0.04389386 -0.036171623 0.032886833 0.025021916 0.03900213 0.022642018
0.00081501313 -0.014167768 -0.0061352723 0.06013641 0.030913526 -0.024916554 -0.060736265 -0.05034051
0.031207506 -0.024596354 0.06543735 0.0056404476 -0.05070659 -0.04897302 0.10945011 -0.122881606
-0.018259266 -0.005287792 -0.05500229 -0.15358083 -0.019573396 0.03446593 0.045637753 -0.033729848
-0.07262616 -0.013389804 -0.023553574 0.10836669 0.010990739 -0.018583035 0.015692644 -0.06418634
0.013551004 0.019779652 -0.0029983837 0.07738308 -0.034433994 0.011456412 0.06146298 0.0050133965
-0.025392665 -0.05522947 0.16085887 0.05174686 -0.06761898 0.030123403 0.09250025 0.033240758
0.007972445 0.026265617 0.009737848 -0.06068376 -0.059362076 -0.050889432 0.009214917 -0.080386475
0.015383419 -0.08819678 0.11779762 -0.053155288 -0.03443426 0.045557726 -0.2991441 -0.021813221
0.029649073 -0.07947507 0.12546071 -0.06304014 -0.005073992 0.077024706 0.073636554 -0.16632028
0.06735069 0.018533772 0.03606178 -0.16227017 0.08637393 -0.080658965 0.0075816247 -0.07734258
0.09291102 -0.057580393 0.06947586 -0.04282115 0.2626296 0.024869159 -0.03040743 -0.038753457
0.116437 -0.037127852 0.02125459 -0.1822575 -0.052437782 -0.08252568 0.084524006 0.14648964
-0.055151664 -0.08198009 -0.07728439 -0.07168954 -0.027588911 0.025644036 0.010946408 -0.07851851
-0.13878995 0.07694035 -0.04471195 -0.08614656 -0.027118212 -0.031289607 0.03920809 0.020806173
0.017971763 0.020780344 0.016859837 0.014318248 0.11718025 -0.04149287 0.07975219 0.013934994
-0.039622124 0.04842984 -0.02404286 -0.18634492 -0.024317503 -0.054777313 0.03794908 0.025508432
0.0067707617 -0.005445653 0.040407334 -0.058982983 0.030749926 0.017689496 -0.10951631 -0.154521
-0.0020021629 -0.018688811 -0.3473644 0.1167945 0.05462138 0.010939806 0.08083739 -0.03834748
-0.04386863 0.04491031 -0.066763386 -0.13687119 0.02991507 0.06411802 0.028368572 -0.055302832
0.00014092434 -0.18746565 0.12149951 0.06511227 0.04433756 -0.02491583 -0.07727534 -0.051837858
-0.039410606 0.031412307 -0.07947471 0.08511353 -0.08785242 0.103479095 -0.03771898 0.061491843
-0.00466076 -0.101340495 -0.50226396 -0.024255363 0.048362933 -0.013229762 -0.040146083 -0.02390059
00000000: c06d 8e3d 5473 993d 9671 d5bc fd9b 593d
00000010: 9e38 acbb efea bc3d 1048 1d3c 91f9 88bd
00000020: 8a91 743d 08f2 c03d 3010 7abb cf34 9dbd
00000030: 0fea a73d 3d05 4ebc 8ff3 d63c 39e1 9bbd
00000040: bd09 69bd c6a7 c63d 4479 1dbd 3dc4 92bc
00000050: 00da 9d3d 02fc 56bd 6dc1 833c e255 53bd
00000060: 313c 31bd a254 233d eac2 52bc ec5d 173d
00000070: 7d35 9c3d 3184 8b3c be1c 393c 26a1 51bd
00000080: ca10 05be e0a2 50bc 80e5 9fbe e18d 693d
00000090: ab85 01be 1059 83bd bd08 2b3d cda4 02bd
000000a0: 3799 443d e927 2abc 9ccd eaba 78d6 50bd
000000b0: 400a c03d f274 13bd e6b3 12be f61c 3fbe
000000c0: 139c 673d c0d9 87bd d812 a1bc d2a8 633c
000000d0: 1f2a 3039 508e 86bd c0c0 9a3d 5b40 92bd
000000e0: 32aa 103d 0ed7 f3bb 2ecb 8fbc 0265 00bd
000000f0: 2dda 943d a520 e83c 9ad0 64bd 5330 82bd
00000100: c7f6 91bc a531 aa3d 002b 553d 1071 70bc
00000110: 9d34 96b9 7112 de3c c78b 71bd a662 58bd
00000120: 0de6 0b3d f89e 79bd 0cca 33bd b228 14bd
00000130: 58b4 063d c3fa cc3c b3c0 1f3d c17b b93c
00000140: 9ba6 553a ed1f 68bc 650a c9bb 9951 763d
00000150: 5d3e fd3c cd1d ccbc 97c6 78bd da31 4ebd
00000160: e2a6 ff3c 4b7e c9bc 0404 863d 81d3 b83b
00000170: b7b1 4fbd ef97 48bd 6127 e03d 5aa9 fbbd
00000180: 7594 95bc 3745 adbb 154a 61bd 4b44 1dbe
00000190: 6358 a0bc 262c 0d3d a7ee 3a3d 4f28 0abd
000001a0: 06bd 94bd e960 5bbc 6df3 c0bc 5bef dd3d
000001b0: 8012 343c 733b 98bc dc8d 803c 2174 83bd
000001c0: 0805 5e3c f008 a23c 8880 44bb 057b 9e3d
000001d0: a90a 0dbd adb3 3b3c 9bc0 7b3d 6b47 a43b
000001e0: 4704 d0bc 4c38 62bd 30b8 243e 84f4 533d
000001f0: d27b 8abd 5bc5 f63c c570 bd3d 7627 083d
00000200: dc9e 023c fe2a d73c 7f8b 1f3c 898f 78bd
00000210: a625 73bd 7071 50bd 2afa 163c aaa1 a4bd
00000220: bc0a 7c3c 83a0 b4bd e13f f13d 5cb9 59bd
00000230: f00a 0dbd bd9a 3a3d 6a29 99be a4b1 b2bc
00000240: 9de2 f23c d3c3 a2bd c678 003e 301b 81bd
00000250: bb43 a6bb 21bf 9d3d c3ce 963d dd4f 2abe
00000260: 29ef 893d 23d4 973c 84b5 133d 272a 26be
00000270: d1e4 b03d 8730 a5bd 476f f83b c965 9ebd
00000280: 2248 be3d 6bd9 6bbd 5c49 8e3d 3b65 2fbd
00000290: 6377 863e 68ba cb3c 0119 f9bc f2bb 1ebd
000002a0: 8676 ee3d 6013 18bd 1b1e ae3c b6a1 3abe
000002b0: 00c9 56bd 3903 a9bd ec1a ad3d 6101 163e
000002c0: b6e6 61bd 2de5 a7bd 4747 9ebd f7d1 92bd
000002d0: 2402 e2bc 7113 d23c 9058 333c 50ce a0bd
000002e0: f41e 0ebe e792 9d3d e123 37bd 9c6d b0bd
000002f0: 0327 debc 8829 00bd aa98 203d b571 aa3c
00000300: 8539 933c 8a3b aa3c a41d 8a3c 1697 6a3c
00000310: 33fc ef3d 6df4 29bd 1e55 a33d 9a4f 643c
00000320: cf4a 22bd 5e5e 463d 88f5 c4bc 34d1 3ebe
00000330: 8035 c7bc 2d5e 60bd 7f70 1b3d 0ff7 d03c
00000340: 44dd dd3b 7371 b2bb 2982 253d 2498 71bd
00000350: 45e7 fb3c 90e9 903c 164a e0bd c13a 1ebe
00000360: b836 03bb 4719 99bc bfd9 b1be f431 ef3d
00000370: abba 5f3d df3c 333c 138e a53d 3f12 1dbd
00000380: 98af 33bd e0f3 373d 3ebb 88bd f627 0cbe
00000390: 7310 f53c 4f50 833d 3565 e83c 3985 62bd
000003a0: 17c5 1339 fff6 3fbe bcd4 f83d 9559 853d
000003b0: 4d9b 353d 481c ccbc 8942 9ebd ef53 54bd
000003c0: 046d 21bd 31aa 003d a3c3 a2bd 0150 ae3d
000003d0: f8eb b3bd d9ec d33d 387f 1abd dfde 7b3d
000003e0: 4ab9 98bb 9b8b cfbd 5f94 00bf 2fb3 c6bc
000003f0: 3618 463d a5c1 58bc 3870 24bd 2ccb c3bc

fc2.bias f4 [4]
-0.08100684 -0.091088675 0.099917404 -0.0209426
00000000: eae6 a5bd b38c babd 7fa1 cc3d d18f abbc
